…
+   "execution_count": 256,
+   "metadata": {},
+   "outputs": [],
+   "source": [
+    "model = LitModel().to(\"cuda\")"
+   ]
+  },
+  {
+   "cell_type": "code",
+   "execution_count": 257,
+   "metadata": {},
+   "outputs": [
+    {
+     "name": "stdout",
+     "output_type": "stream",
+     "text": [
+      "========================================================================\n",
+      "                Kernel Shape        Output Shape     Params    Mult-Adds\n",
+      "Layer                                                                   \n",
+      "0_conv_l1      [1, 16, 3, 3]  [1, 16, 1024, 128]      160.0   18.874368M\n",
+      "1_bn_l1                 [16]  [1, 16, 1024, 128]       32.0         16.0\n",
+      "2_leakyRelu                -  [1, 16, 1024, 128]          -            -\n",
+      "3_pool                     -    [1, 16, 512, 64]          -            -\n",
+      "4_conv_l2     [16, 32, 3, 3]    [1, 32, 512, 64]      4.64k  150.994944M\n",
+      "5_bn_l2                 [32]    [1, 32, 512, 64]       64.0         32.0\n",
+      "6_leakyRelu                -    [1, 32, 512, 64]          -            -\n",
+      "7_pool                     -    [1, 32, 256, 32]          -            -\n",
+      "8_dropout                  -    [1, 32, 256, 32]          -            -\n",
+      "9_conv_l3     [32, 48, 3, 3]    [1, 48, 256, 32]    13.872k  113.246208M\n",
+      "10_bn_l3                [48]    [1, 48, 256, 32]       96.0         48.0\n",
+      "11_leakyRelu               -    [1, 48, 256, 32]          -            -\n",
+      "12_pool                    -    [1, 48, 128, 16]          -            -\n",
+      "13_dropout                 -    [1, 48, 128, 16]          -            -\n",
+      "14_conv_l4    [48, 64, 3, 3]    [1, 64, 128, 16]    27.712k   56.623104M\n",
+      "15_bn_l4                [64]    [1, 64, 128, 16]      128.0         64.0\n",
+      "16_leakyRelu               -    [1, 64, 128, 16]          -            -\n",
+      "17_dropout                 -    [1, 64, 128, 16]          -            -\n",
+      "18_conv_l5    [64, 80, 3, 3]    [1, 80, 128, 16]     46.16k    94.37184M\n",
+      "19_bn_l5                [80]    [1, 80, 128, 16]      160.0         80.0\n",
+      "20_leakyRelu               -    [1, 80, 128, 16]          -            -\n",
+      "21_lstm_l1                 -       [1, 128, 512]  9.457664M    9.437184M\n",
+      "------------------------------------------------------------------------\n",
+      "                           Totals\n",
+      "Total params            9.550688M\n",
+      "Trainable params        9.550688M\n",
+      "Non-trainable params          0.0\n",
+      "Mult-Adds             443.547888M\n",
+      "========================================================================\n"
…
+       "      <td>NaN</td>\n",
+       "      <td>NaN</td>\n",
+       "    </tr>\n",
+       "    <tr>\n",
+       "      <th>21_lstm_l1</th>\n",
+       "      <td>-</td>\n",
+       "      <td>[1, 128, 512]</td>\n",
+       "      <td>9457664.0</td>\n",
+       "      <td>9437184.0</td>\n",
+       "    </tr>\n",
+       "  </tbody>\n",
+       "</table>\n",
+       "</div>"
+      ],
+      "text/plain": [
+       "                Kernel Shape        Output Shape     Params    Mult-Adds\n",
+       "Layer                                                                   \n",
+       "0_conv_l1      [1, 16, 3, 3]  [1, 16, 1024, 128]      160.0   18874368.0\n",
+       "1_bn_l1                 [16]  [1, 16, 1024, 128]       32.0         16.0\n",
+       "2_leakyRelu                -  [1, 16, 1024, 128]        NaN          NaN\n",
+       "3_pool                     -    [1, 16, 512, 64]        NaN          NaN\n",
+       "4_conv_l2     [16, 32, 3, 3]    [1, 32, 512, 64]     4640.0  150994944.0\n",
+       "5_bn_l2                 [32]    [1, 32, 512, 64]       64.0         32.0\n",
+       "6_leakyRelu                -    [1, 32, 512, 64]        NaN          NaN\n",
+       "7_pool                     -    [1, 32, 256, 32]        NaN          NaN\n",
+       "8_dropout                  -    [1, 32, 256, 32]        NaN          NaN\n",
+       "9_conv_l3     [32, 48, 3, 3]    [1, 48, 256, 32]    13872.0  113246208.0\n",
+       "10_bn_l3                [48]    [1, 48, 256, 32]       96.0         48.0\n",
+       "11_leakyRelu               -    [1, 48, 256, 32]        NaN          NaN\n",
+       "12_pool                    -    [1, 48, 128, 16]        NaN          NaN\n",
+       "13_dropout                 -    [1, 48, 128, 16]        NaN          NaN\n",
+       "14_conv_l4    [48, 64, 3, 3]    [1, 64, 128, 16]    27712.0   56623104.0\n",
+       "15_bn_l4                [64]    [1, 64, 128, 16]      128.0         64.0\n",
+       "16_leakyRelu               -    [1, 64, 128, 16]        NaN          NaN\n",
+       "17_dropout                 -    [1, 64, 128, 16]        NaN          NaN\n",
+       "18_conv_l5    [64, 80, 3, 3]    [1, 80, 128, 16]    46160.0   94371840.0\n",
+       "19_bn_l5                [80]    [1, 80, 128, 16]      160.0         80.0\n",
+       "20_leakyRelu               -    [1, 80, 128, 16]        NaN          NaN\n",
+       "21_lstm_l1                 -       [1, 128, 512]  9457664.0    9437184.0"
+      ]
+     },
+     "execution_count": 257,
+     "metadata": {},
+     "output_type": "execute_result"
+    }
+   ],
+   "source": [
+    "summary(model.to(\"cuda\"), torch.zeros(1,1,1024,128).to(\"cuda\"))"
+   ]
+  },
+  {
+   "cell_type": "code",
+   "execution_count": 225,
+   "metadata": {},
+   "outputs": [],
+   "source": [
+    "inp = torch.rand(1, 1, 1024, 128).to(\"cuda\")"
…
